data/model.pth (torch, 824582 bytes, 10 tensors)

lstm.weight_ih_l0 f4 [512, 11]
000000 89 7e 4e 3d 17 9a e2 bd 48 9b 1a be 51 c6 fd bc
       0.050413642 -0.110645466 -0.15098298 -0.030978354
000010 0e ad 83 bd fd ea 03 be cf 21 90 be f5 1d c8 3c
       -0.06429492 -0.1288261 -0.28150794 0.024428347
000020 ea 03 04 be 64 98 da 3d 51 67 06 3d 86 ff 73 3d
       -0.12892118 0.106735975 0.032813374 0.059569858
000030 ad 83 3e 3c ca 59 a3 3c 80 f6 25 3d fa 7b 0d bd
       0.011628074 0.019940276 0.040518284 -0.03454206
000040 5f ed 9e 3d 9a 4e b4 bc 95 38 ae 3c d0 69 cb 3d
       0.07760119 -0.022010136 0.021267215 0.099322915
000050 9b e3 d8 3d eb 1b 05 3d 8a ae 80 3d c4 5d 45 3e
       0.10590287 0.032497328 0.06283291 0.1927405
000060 c1 23 b0 bd 29 1e 16 3d 43 82 df 3d de c4 9f 3c
       -0.086005695 0.036649857 0.10913517 0.019503053
000070 70 b2 16 bd ae ca bd be c2 b6 b5 bd 62 56 dc bc
       -0.036791265 -0.37068695 -0.08872749 -0.02689666
000080 27 f9 92 bb 37 67 3f 3d 91 8d 04 bd d4 40 1f bc
       -0.0044852677 0.046729293 -0.03236157 -0.009720046
000090 75 bb f2 bd 52 38 17 3d 99 bf d2 3d 62 6e 2c bc
       -0.11852161 0.036918946 0.102904506 -0.010524364
0000a0 07 75 e3 bd f2 f7 2c bd 9b be d9 bc 60 9a cd 3c
       -0.111063056 -0.042228647 -0.026580146 0.025098026
0000b0 35 2e 2b 3e 70 cb 87 3c b1 8d 01 3e bb 80 0e 3e
       0.16716845 0.016576499 0.12651707 0.13916294
0000c0 f3 3f 12 3f c4 1c 10 be bc f3 6e bd 96 bc 61 bd
       0.5712883 -0.14073473 -0.058337912 -0.05511149
0000d0 bf 3b 81 be 6d e0 b2 3c 4e ff ba bc 97 f8 ae 3e
       -0.25240895 0.02183553 -0.022826817 0.34174034
0000e0 98 fa 44 3e cc c5 81 be b7 14 56 bc 8f ee 2a 3e
       0.19236219 -0.2534622 -0.013066462 0.16692565
0000f0 39 e6 9d 3d 02 9d 94 bd 86 87 62 be f2 00 d8 3d
       0.07709927 -0.07256509 -0.2212201 0.10547055
000100 62 55 a0 be 5f e2 ac 3d 4b 5a f9 3e 65 54 6d be
       -0.31315142 0.08441614 0.487017 -0.23176725
000110 67 a4 e0 bc 24 b8 c8 3d f1 90 ee bc 8e 95 3f bd
       -0.027422143 0.09800747 -0.029121848 -0.046773486
000120 b1 42 de bd 3d 30 28 bd 48 87 d2 bc 3f 40 ce bc
       -0.10852564 -0.04106163 -0.025699273 -0.02517712
000130 44 3e 38 bd 54 4f 31 be 47 0c 0c be 6e 87 3c be
       -0.044981256 -0.17315418 -0.13676558 -0.18411037
000140 39 72 9c bc 39 d9 8e 3b 58 c2 ae 3d 27 ba a1 3d
       -0.019097434 0.004359391 0.08533162 0.07896834
000150 1d 05 ae bc a4 ec 57 3e 5d 9c 2c 3c 54 da d5 ba
       -0.021242673 0.21086365 0.010535327 -0.0016315677
000160 0b eb 69 be 7f d9 5b bb fd 94 8d 3d 80 7e d4 bd
       -0.22843568 -0.0033546386 0.06913183 -0.103756905
000170 c6 87 56 bd 55 72 b8 bd 4a 76 23 3d 2a 6e c5 bc
       -0.052375577 -0.09006182 0.03990773 -0.024100382
000180 ec 55 d1 bc 9e ee 12 bc 7c 22 95 3c c2 f8 2c 3d
       -0.025553666 -0.008968024 0.01820492 0.04222942
000190 f9 80 b6 bd 9b 9d cc bd e9 ad c3 3d 38 48 68 3b
       -0.08911318 -0.09990998 0.09554655 0.0035443436
0001a0 e5 0e 92 3d 39 0b 50 3b 24 39 fa bd b6 1f 9a 3d
       0.07131747 0.003174497 -0.1221793 0.0752558
0001b0 39 51 b8 3c 40 54 af bd b1 64 92 bc 66 2e 2c bd
       0.022499667 -0.08560991 -0.017870279 -0.042036436
0001c0 5f ad f9 bc 62 89 a1 3d 6f 3b 1e bd 22 da 4c 3e
       -0.030478178 0.07887532 -0.0386309 0.20005086
0001d0 ca 9f b1 bd 2b 46 6c bd 3d 1b e0 3c 7b 16 0c bd
       -0.086730555 -0.057684105 0.027356738 -0.034201127
0001e0 73 8b a0 3d db 2a 61 3d b5 da 3c bc 41 dd 02 3e
       0.07839098 0.05497251 -0.011526753 0.12779714
0001f0 a8 f9 c4 3d cb d7 05 bd d1 84 8c bc b1 d1 4d bc
       0.09617931 -0.0326765 -0.017153176 -0.012562201
000200 c8 4e c8 3d 16 4b f2 3d d3 68 ff bc 79 b6 a4 3d
       0.09780651 0.11830728 -0.031177914 0.080426164
000210 f9 26 d3 bd 9c bc 93 be 3c bc 4e 3d 80 4e 35 bd
       -0.10310168 -0.28854835 0.050472483 -0.044264317
000220 ee c8 6d bd 5e 3b 89 be 6e d6 d2 3c bf 94 67 3d
       -0.05805295 -0.26803106 0.025737014 0.05653834
000230 f5 35 40 3e de 38 00 bd 17 c1 01 bc f4 5a b4 bd
       0.18770583 -0.031304233 -0.007919571 -0.088064104
000240 d5 18 af 3d ce be c9 3d d3 43 21 3d ec 89 6f 3c
       0.08549658 0.09850846 0.039371323 0.0146202855
000250 75 2d 22 3d 5d cb 40 3c 88 0f ef 3d e9 24 c2 bd
       0.039594132 0.011767236 0.11672884 -0.09479696
000260 95 7f a1 bd a5 d5 ff ba c4 6a 36 3d a2 9d 8d bd
       -0.078856625 -0.0019518627 0.044535413 -0.06914832
000270 e3 50 0c bd 7c 4b 67 3d 4c b6 13 3e 85 fd 09 3d
       -0.034256827 0.056468472 0.1442501 0.03368904
000280 6e e7 c3 3b 69 50 a5 bd 7c 7c 14 3d e0 a9 c6 3d
       0.0059785163 -0.08071978 0.03625153 0.0970037
000290 d5 28 94 bc b2 55 c3 3d 1c e3 5c 3c ee ef 4b bc
       -0.018085876 0.095378295 0.0134818815 -0.01244734
0002a0 66 6a 59 3c 7b b6 2b 3b 7f 7e e4 3c bf 5f 35 bb
       0.013269996 0.0026201296 0.02789235 -0.0027675477
0002b0 7e 52 7f 3d 35 f1 06 3c 67 08 66 3c 89 9d a0 3d
       0.06233453 0.008236219 0.014040089 0.078425474
0002c0 da e8 2d bd 09 2d bf bd a0 1c aa bd b7 81 dc 3d
       -0.042458393 -0.09334762 -0.08306241 0.10766929
0002d0 fa 00 7e bd fb b8 4e 3d e7 1b d2 bd 7c 8f 8b bc
       -0.06201265 0.05046938 -0.10259228 -0.017036192
0002e0 eb ba 79 bd 31 9f 94 bd 72 cc 8a bd 2c aa 38 be
       -0.060969274 -0.07256926 -0.06777276 -0.18033665
0002f0 02 3a 81 3d 2c 48 42 3c 59 13 6f 3a 33 29 08 3e
       0.06309892 0.011858027 0.00091200095 0.13296966
000300 32 87 1d 3d 9b 26 8d bd ec c5 af 3d 69 5a 0d 3e
       0.03845901 -0.06892129 0.085826725 0.1380402
000310 ca eb 03 bd 1c c6 9a bb 8b 2e ce 3c b0 af cc 3c
       -0.032207288 -0.0047233235 0.025168678 0.024986118
000320 61 2e 85 3a 54 83 db bc e9 67 2c 3e c0 65 6a bd
       0.0010160917 -0.02679602 0.16836514 -0.057225943
000330 1d 90 2f 3c 05 6b cb 3d ce 71 aa 3d c4 57 ba 3d
       0.010715512 0.09932522 0.08322488 0.09098771
000340 5d c3 88 3d de a0 2b 3d ac f3 04 3c 38 20 b5 bd
       0.066778876 0.04190146 0.0081147365 -0.08844036
000350 9b 55 8b 3d 27 e9 f7 3c 51 7c e3 3c 6e 5a 22 3d
       0.06803437 0.030262543 0.02776924 0.03963702
000360 97 a6 27 3d 34 0a 64 3d 34 d3 91 bc bf 32 b1 3d
       0.040930357 0.055673793 -0.017800905 0.08652257
000370 ab e7 28 bd 53 88 7e bc 33 fc 4c bd 7b 69 a1 3c
       -0.04123656 -0.015535432 -0.050045203 0.019703617
000380 9d 7a 02 3e ad 10 29 bd fe a1 8d bd b6 9f 79 bd
       0.12742086 -0.04127567 -0.06915663 -0.060943328
000390 f9 19 8f 3d 1c d0 73 3d 7b ff 73 bd 50 32 fd 3b
       0.06987376 0.05952464 -0.059569817 0.007726945
0003a0 99 89 12 bd f8 8b 7e 3c 4f 65 85 bb 61 db e9 bd
       -0.035775755 0.015536301 -0.004070915 -0.11418796
0003b0 5c d1 26 3d b9 f1 3c 3e 9b 22 bf bc fc f4 ab bc
       0.040727004 0.18451585 -0.02333193 -0.020990841
0003c0 ad 0e 0b 3c 0c 2c 2d 3d 71 9f 04 3e f4 e0 c7 3d
       0.008487386 0.042278334 0.12951447 0.09759703
0003d0 4d a6 14 3e 38 df 0b bc 9b 5b 54 bc d5 19 d2 3d
       0.14516564 -0.008537106 -0.012961294 0.10258833
0003e0 3a af 86 bd 88 4d 24 3c 0a 2f 96 3c 31 36 95 bd
       -0.065763906 0.0100282505 0.018332977 -0.07285727
0003f0 5d 3f d9 3a 61 69 d2 bc f8 41 24 bd 8a 86 d6 bb
       0.001657467 -0.025685014 -0.040101975 -0.0065468

lstm.weight_hh_l0 f4 [512, 128]
000000 0d fe b1 3d e1 3b 47 bd 02 50 52 be 48 d3 c8 3c
       0.086910345 -0.04864109 -0.20538333 0.02451481
000010 88 ea b0 bd ab 21 02 3e 3b db 35 bd b1 c5 7e 3d
       -0.08638483 0.12708156 -0.044398528 0.062200252
000020 34 a4 85 3b 3d 76 31 bd cd e7 8e 3c 84 7c ef 3d
       0.0040784124 -0.04332565 0.017444516 0.11693671
000030 2e 7e f1 3d ad 23 f5 bd 8a 2c 02 3d cd c1 94 3d
       0.11791645 -0.11969695 0.031780757 0.07263527
000040 50 be 0c be 2a 6c 96 3d e9 d4 15 be 4b 13 ef 3a
       -0.13744473 0.073448494 -0.14632 0.0018240003
000050 eb 30 5d 3d 5f c9 bc 3d db 36 e1 3c 33 93 40 be
       0.05400173 0.09218096 0.027491977 -0.18806152
000060 24 75 31 bd 61 67 28 be d8 37 9e 3d a5 b8 28 be
       -0.043324605 -0.16445686 0.07725495 -0.16476686
000070 20 38 19 3b 15 6a 6d bc 9f 2d 08 3e 1b c8 ab 3d
       0.00233794 -0.014490624 0.13298653 0.083877765
000080 b1 b8 10 bd b5 99 4a be 0d 03 05 3c c5 8a ad bd
       -0.035332385 -0.19785197 0.008118403 -0.08473734
000090 17 ea 0c 3e ae 3e 13 bd 3d 57 2f be d9 71 fb bc
       0.13761173 -0.035948448 -0.17123123 -0.030693935
0000a0 e3 5b 3e 3d a9 4a ab bd e6 08 dd 3d 75 ec ca bd
       0.04647435 -0.0836385 0.10792713 -0.09908382
0000b0 49 9d 86 bd 8d 5d 48 3d 2a 68 b6 bc a4 64 0c be
       -0.065729685 0.048917342 -0.022266466 -0.13710266
0000c0 9c 24 b1 bd 2b a3 f7 bc 7b 8b 03 3d 57 6a 2c 3e
       -0.08649561 -0.030229172 0.03211544 0.1683744
0000d0 ff f6 26 3b 17 91 ad be dc e9 23 be 86 9f 89 3d
       0.002547681 -0.33899757 -0.16007179 0.0671988
0000e0 38 d6 50 bd d5 12 f7 3d c4 6e 9d 3d e3 ed a3 bd
       -0.050985545 0.12064139 0.076871425 -0.08004358
0000f0 ff e2 8f 3d 0a fb 74 be ed a1 91 bd 73 ab 8e bd
       0.07025718 -0.23923889 -0.07110963 -0.06966295
000100 d2 42 04 3e 51 d2 67 be 30 f2 21 bd de a9 79 be
       0.12916115 -0.22638823 -0.03953761 -0.24381205
000110 e8 48 c3 3c c1 98 86 bd 8a 0b 94 bc 9e 24 62 bd
       0.023838475 -0.06572104 -0.018071909 -0.055210702
000120 82 8f 3d bd 44 cb 0a 3e 72 36 03 3e e7 65 fd 3d
       -0.046279438 0.13554102 0.12813738 0.12372952
000130 5d 83 f1 be c0 c5 12 bc b9 99 3b 3d 03 0c e6 3c
       -0.47170535 -0.00895828 0.0458009 0.0280819
000140 22 bb 02 be 01 ce c7 bc 48 f6 cd bd d6 f3 a2 bd
       -0.12766698 -0.024390223 -0.1005674 -0.07956664
000150 06 ad 4a bd aa 66 8b 3d 0a b7 25 3e 23 0d 41 bd
       -0.049481414 0.06806691 0.16183105 -0.04713167
000160 8a ac 76 3d fa 19 5c be 26 03 8c be a2 ed 35 3d
       0.06022314 -0.21494284 -0.27346152 0.044416077
000170 ba c6 3d 3d c7 75 b1 bd e8 21 e9 bd 20 39 26 be
       0.0463321 -0.08665042 -0.1138342 -0.16232729
000180 c3 f4 cc 3d 58 fc f5 3d d0 23 57 3d 60 2b 17 3e
       0.10007622 0.120110214 0.052524388 0.1476264
000190 d7 2b fc 3d 2c da 81 3d 40 e0 b0 bd fd de 2c bd
       0.12313049 0.06340441 -0.08636522 -0.042204846
0001a0 5b dc 11 bf cf b1 26 bd 9b 8e 1b 3d e3 b0 c9 3d
       -0.5697686 -0.040696915 0.037977796 0.098481916
0001b0 13 7f 53 be 8c ab 1c bd 1e a6 46 3d 27 8c a7 bd
       -0.20653944 -0.038249537 0.048498265 -0.08181029
0001c0 43 e4 86 3a 91 30 f2 bc 82 d6 1c 3d d5 47 a6 b6
       0.0010291416 -0.029564174 0.038290508 -4.955548e-06
0001d0 fa 9d ac bc e6 24 2a be 8f d1 40 3d 5e 75 c8 bd
       -0.021071423 -0.16615638 0.04707485 -0.09788011
0001e0 79 91 01 be 0f e4 cd 3e 99 f8 90 3b 3b 7b 9c be
       -0.1265315 0.40213057 0.0044241664 -0.30562767
0001f0 9a 42 7a bd 09 1a 39 3e 15 8f c7 be 65 c5 67 be
       -0.061098672 0.18076338 -0.3897635 -0.22633894
000200 98 b0 89 3d 0c 9a e2 bc 26 db 9e bd ee 02 d8 bc
       0.06723136 -0.027661346 -0.07756643 -0.026368584
000210 34 e6 6b bd 0e 50 52 bd 10 c0 02 bd 1c 91 f1 3d
       -0.057592586 -0.051345877 -0.031921446 0.117952555
000220 b9 b9 4b bd 8c e0 41 3d d5 de 94 3d e0 aa 5a 3d
       -0.049737666 0.047333285 0.07269064 0.053385615
000230 79 fb 1d 3d 26 9a 58 3d 3e 35 2d 3c 9f 83 eb 3d
       0.0385699 0.052881382 0.010571776 0.11499714
000240 43 60 be 3d cf c0 62 bd 8f e1 c9 bc 84 24 b3 bd
       0.09295704 -0.055359658 -0.024643688 -0.08747199
000250 78 81 64 3b 75 69 d5 bd 1a 7f 83 bc 53 6a 8a 3d
       0.0034867208 -0.10420505 -0.016051818 0.06758561
000260 fb 87 81 bd 39 79 93 3c 51 bf 36 bd 1e 8c 98 3d
       -0.06324764 0.01800214 -0.044616047 0.074486
000270 66 2c 7a bc f0 06 e4 bc 1b 2b 21 bd ad ec b6 3d
       -0.0152693745 -0.02783534 -0.03934775 0.08931861
000280 32 33 9a 3d 4d 6c e2 bc 33 91 b6 bd 69 26 9b 3c
       0.07529296 -0.027639532 -0.08914413 0.018939214
000290 eb ab e0 bc 0e 94 77 bd 0b 16 94 bd de ee 86 3d
       -0.027425727 -0.06044393 -0.07230767 0.06588529
0002a0 de 3e 3a bd 28 be 05 3d d6 2c af bd 48 e5 b0 bc
       -0.04547011 0.03265205 -0.08553474 -0.021593705
0002b0 39 c1 d7 bd 0d 65 2c 3d 48 7c 12 bc 28 da a9 3c
       -0.10534901 0.042088557 -0.008940764 0.020733908
0002c0 bb 39 f1 3a ba 0e 0a 3d 60 5f a2 3d e7 ce d1 3d
       0.0018404046 0.03370545 0.079283476 0.102445416
0002d0 ad 08 0a 3e fe ef 7b bc 7a f6 9b bd aa a2 03 be
       0.13479872 -0.015377043 -0.07615371 -0.1285502
0002e0 92 50 1a 3d 34 7f e8 ba db 49 73 bd ea 8b 96 bb
       0.037674494 -0.0017738105 -0.059396606 -0.004594316
0002f0 5c 47 14 bd de 28 a9 3d b6 6d 92 3d 6a ff 9f 3d
       -0.036200866 0.08259748 0.07149832 0.07812388
000300 16 a2 a6 3d d5 b4 a3 bd fb 4b fc 3d bd 1a 4a bd
       0.08136384 -0.07993475 0.123191796 -0.049341906
000310 ce 1c 99 bc f3 31 c6 3d 50 2a cf 3b 6e 77 03 3d
       -0.018690493 0.09677496 0.0063221827 0.03209632
000320 45 1c e8 3d d2 8d ce bd ec c8 92 3c 85 f3 5e bd
       0.11333517 -0.10085644 0.017918073 -0.054431457
000330 8f ca e5 39 a3 59 d9 3d ac 02 9f bd 81 f6 42 bd
       0.00043829202 0.106128 -0.077641815 -0.047598366
000340 7d d3 c9 3c 08 2e 22 3d 4e f3 98 3d 9f a2 b1 bc
       0.024636978 0.03959468 0.07468282 -0.02168399
000350 71 9d 06 be 83 22 cf bb 48 59 30 3d 95 8e cb bd
       -0.13145997 -0.006321253 0.043053895 -0.09939305
000360 c9 5a 6d bd c9 87 6a 3d 05 1c ba bd da 60 55 bd
       -0.057947908 0.0572584 -0.090873756 -0.052094318
000370 b5 bf ac 3b 0b 36 2a 3c 75 de d4 3c 5a 11 f4 3d
       0.0052718767 0.010388861 0.025984982 0.11917372
000380 72 11 75 3e d1 1c 83 3d 75 3c 80 bd 83 33 aa 3d
       0.23932436 0.06401981 -0.06261531 0.08310606
000390 5c 7f b9 bc df 12 1d be 9a d2 86 3d 35 38 2e 3c
       -0.022643737 -0.1533923 0.06583138 0.010633518
0003a0 e8 76 66 3d b2 b3 29 bd 2d cc 5b bd 2f 44 b5 bc
       0.05626574 -0.041431136 -0.053661514 -0.022127239
0003b0 41 65 c0 3d 91 3a 2b bc 56 11 94 3c 49 c6 74 bd
       0.09394313 -0.010450975 0.018074673 -0.059759412
0003c0 53 2e f5 3b 05 bc a1 bd 7f 1a 83 3b 8b e5 4a bd
       0.007482329 -0.0789719 0.0040009613 -0.049535315
0003d0 a4 d2 99 3c 60 c5 4e 3d 40 fc 8d bc 3f 8f 08 3d
       0.0187772 0.0504812 -0.017332196 0.033339735
0003e0 9c 12 c8 bd 41 3f 2c 3d 38 77 13 bd f6 46 e0 3d
       -0.097691745 0.04205251 -0.036002368 0.10951035
0003f0 13 86 3a bc 7b 6c ca bd bf fb df 3c 21 40 b7 bc
       -0.011384505 -0.09883972 0.027341722 -0.022369446

lstm.bias_ih_l0 f4 [512]
000000 1c f8 75 3e 96 02 36 3d 75 b6 e6 3d 74 23 3d bd
       0.24020427 0.04443606 0.1126527 -0.04617639
000010 e5 c7 c6 ba 53 94 cc 3d 81 49 04 bd be 8e 8d 3d
       -0.0015165774 0.09989228 -0.03229666 0.069119915
000020 1c 52 89 bd 12 ec 1b 3d ea be d1 bc 3a 60 72 bd
       -0.06705114 0.03806693 -0.02560373 -0.0591738
000030 ec 62 37 bd 2f fc 9d 3d a4 75 59 bd ea 04 cb 3c
       -0.044772074 0.07714116 -0.053090706 0.024782617
000040 28 06 71 bd cc f3 ec 3c 7a 64 28 3b 6b ac e5 3c
       -0.05884376 0.028924845 0.0025694654 0.028036317
000050 63 5d 28 3d e7 66 86 bc 0d 26 34 3d 58 32 76 bd
       0.041104686 -0.01640649 0.0439816 -0.060106605
000060 68 9c 06 3d bf 25 18 3d 7a ee ab bc 28 1f b4 3d
       0.032864004 0.037145372 -0.020987738 0.08795005
000070 b7 50 f6 3b f2 c0 87 3d a2 7d 38 3d 68 f4 8e 3d
       0.007516946 0.06628598 0.045041688 0.069802105
000080 ff 6d 21 bd ab 11 70 3d eb 30 dd bc 5b 3f 23 bd
       -0.03941154 0.0586106 -0.027000865 -0.039855342
000090 5b a3 39 bc 8a 1c c2 bc b0 74 81 3d 66 fc 04 bd
       -0.011330451 -0.02369525 0.063210845 -0.03246727
0000a0 00 24 99 3c 42 a9 25 bd f6 7f fc 3b e2 34 58 3d
       0.018693924 -0.04044462 0.007705684 0.052784808
0000b0 c4 68 a6 bc c5 53 e8 3d 98 6e 85 bd 4e 27 6c 3d
       -0.020313628 0.11344103 -0.06515235 0.05765467
0000c0 9a 10 05 bd 6b 0a 3a bc 38 b9 c1 3d 1a e4 9f bc
       -0.032486536 -0.011355023 0.09459156 -0.019517947
0000d0 30 0c c2 3d 68 68 96 3c b9 ae 2f 3d 74 72 fa bc
       0.09474981 0.018360332 0.042891238 -0.030572154
0000e0 82 47 92 bd 3f 67 51 3d 85 5b 16 3b 4f f1 33 3d
       -0.07142545 0.051123854 0.0022942733 0.0439313
0000f0 c4 92 5c 3c b5 d5 44 bd 4e 68 c7 bb d9 6f 05 3d
       0.013462726 -0.04805537 -0.006085432 0.03257737
000100 80 e9 b1 3d 14 ac e4 bd 96 fe 02 3e 7b 1f a5 3d
       0.08687115 -0.11165634 0.1279243 0.08062645
000110 14 cb 77 38 23 7a 72 bd 68 a0 f9 bc 52 91 34 3d
       5.907852e-05 -0.05919851 -0.030471995 0.0440839
000120 47 01 cc 3c fe d5 99 3d ab 56 e8 bb 58 93 a1 3d
       0.024902953 0.07511519 -0.0070904098 0.07889432
000130 5e 4d 89 3d 18 52 8c bd 68 d4 a1 3d 97 64 c6 3a
       0.0670421 -0.06851596 0.079018414 0.0015136179
000140 00 ec 8a 3d 5c f5 c4 3c 12 26 11 3d 71 b7 0d 3d
       0.06783295 0.024042778 0.035436697 0.03459877
000150 08 cf 87 3c cd 96 6c bd 0f 77 c6 3d 7f fa ee 3b
       0.016578212 -0.057761002 0.096906774 0.007293045
000160 12 0d 39 bd 49 3f d0 bb 28 86 fd 3d 55 14 a7 3d
       -0.04517848 -0.0063552004 0.12379104 0.08158175
000170 27 b5 88 3d 3b cf 6e bd 68 f0 4f bd ae 2d a3 3c
       0.06675177 -0.0583031 -0.05076638 0.019919243
000180 1b 18 75 3c 2e 2b 54 bc 28 64 f5 3c 94 4a 84 bd
       0.0149593605 -0.012949748 0.029954985 -0.06459537
000190 98 b5 85 3c e7 c0 af 3d 40 d6 78 3c 8a a5 b8 3d
       0.016321942 0.08581715 0.0151878 0.09015949
0001a0 b6 c4 00 3d 12 03 f1 3d 3b 71 30 3c ba 44 64 bd
       0.0314376 0.11768164 0.010769184 -0.055729605
0001b0 8e 74 7e 3d 27 88 1a 3d fc 88 a4 bd 20 e0 ca bb
       0.062122874 0.0377275 -0.0803394 -0.0061912686
0001c0 b6 2c ac 3d 99 bd 28 3e 8f 48 c2 3d 48 e7 33 bd
       0.084069654 0.16478576 0.09486496 -0.04392174
0001d0 66 29 e1 bc 72 6c 10 3e 59 5c 0b 3e d8 64 b5 3d
       -0.02748556 0.14103869 0.13609447 0.08857125
0001e0 d0 87 58 bd 89 77 4a 3d 1f 6d 20 3d ce 64 00 bc
       -0.052863896 0.049430404 0.039166566 -0.007836534
0001f0 ff ab 22 bd 7b 5c 9e 3d a0 e5 0a 3d b5 32 15 3d
       -0.03971481 0.07732483 0.033910394 0.03642531
000200 96 27 46 3e 93 f5 b8 3c e9 a6 a4 3d cd 27 fa 3c
       0.19351038 0.022578036 0.08039648 0.030536557
000210 51 c4 17 3d 4a ee 18 3d 5d 27 43 3e be ee 2e bd
       0.037052456 0.037336625 0.19057985 -0.04270815
000220 ad ff bd 3d 49 31 8a 3d 89 fe 19 bd 93 59 aa 3d
       0.09277282 0.06747682 -0.03759626 0.08317866
000230 e3 e5 ab 3d 2a 77 ff 3c 98 a2 91 3d 78 79 6f 3d
       0.08393457 0.031184752 0.071110904 0.05846545
000240 82 f6 a1 3c ee 79 8a 3d 65 17 9f bd 87 7e d8 3d
       0.019770864 0.067615375 -0.07768134 0.10571008
000250 b2 7d 2f bc 78 67 a0 3d 0b 74 02 3c d1 eb 09 bc
       -0.01071112 0.07832235 0.007962237 -0.008418039
000260 f1 98 a7 3d eb e2 ba 3d 2f e1 aa bb 17 36 7c bd
       0.08183468 0.091253124 -0.0052148323 -0.06157502
000270 5f 98 a0 bb 9e b0 a6 3d 48 f4 0c 3d f5 4a ef 3c
       -0.0049009765 0.08139156 0.034412652 0.029210547
000280 4f ad 0a bd 36 0d 02 3d e0 4d e2 3d 4a 24 69 3c
       -0.033856686 0.03175088 0.1105001 0.014229843
000290 0c 7f dc 3d f3 a5 0c 3d 1d 72 3e bd 75 cf d8 3c
       0.1076642 0.03433795 -0.046495546 0.02646611
0002a0 b5 65 cd 3d 1e ea 87 3d bd 7c 64 3d 92 f5 85 bc
       0.10029165 0.06636451 0.055783022 -0.016352449
0002b0 08 99 85 b9 00 38 ce 3d 14 a0 fe 3c 56 48 48 bd
       -0.00025481754 0.10069275 0.03108219 -0.04889711
0002c0 f7 27 a7 3d 7b dd 04 bd dd 30 79 3d 2d bd 4a 3d
       0.081619196 -0.032437783 0.060837615 0.04949682
0002d0 42 75 aa 3d be 62 bc bd bd e8 23 3e 9c 5c a9 3d
       0.083231464 -0.09198521 0.16006751 0.08269617
0002e0 28 b0 c1 bb cb e1 22 3d 45 8a 92 3c f7 e9 8e ba
       -0.005910892 0.039766114 0.017888198 -0.0010903467
0002f0 5c 38 7c bd eb d3 9b bd 3b 30 8d bb a2 ae 1f 3d
       -0.061577186 -0.076087795 -0.004308728 0.038984902
000300 93 c0 dc 3d 7e 30 96 bd c5 2e a0 3d b0 6f ce 3d
       0.10778918 -0.07333468 0.078214206 0.100798965
000310 2f 90 f1 bc 5d 79 41 3c f0 ca ae 3a df 68 8c 3d
       -0.029487697 0.01180872 0.0013335627 0.0685594
000320 61 4e e5 3c 60 5b 9a 3d b8 2f 3b 3d e4 e6 68 3c
       0.027991476 0.0753696 0.045699805 0.014215205
000330 f6 4a 42 3d 0d f9 0a 3d d4 5b f6 3d 96 40 2c bd
       0.04743477 0.03392892 0.120292336 -0.04205378
000340 d9 c0 9c 3d 7f 66 dc 3d 02 d4 8e 3d 2c 85 5c 3d
       0.0765397 0.10761737 0.06974031 0.05383794
000350 9c cb f0 3c bf f2 0f 3d 2a a7 27 3d 49 49 85 bd
       0.029393964 0.03514361 0.040930904 -0.06508119
000360 b8 da 32 3d 6c a8 09 3d 84 c1 ec 3d f5 28 80 3d
       0.043665618 0.033607885 0.11560348 0.06257812
000370 78 6b 00 bd 34 ec c0 bc 39 61 84 bd ff 8d 8e 3d
       -0.03135249 -0.02355013 -0.06463856 0.06960677
000380 62 22 33 3e 88 01 dc bb a3 83 63 3d 7a 4f 17 bd
       0.17493585 -0.0067140497 0.05554546 -0.03694103
000390 b7 76 15 3d c2 8f 14 3e b5 08 91 36 a6 4a ac 3d
       0.03649017 0.14507964 4.3223504e-06 0.084126756
0003a0 bf c8 c7 3b e2 eb 14 3d 33 e7 ec 3d f7 19 70 bc
       0.006096929 0.036357768 0.11567535 -0.014654628
0003b0 de 31 2f 3d 49 94 4b 3d 98 95 b5 bd 99 5c 7a bc
       0.042772166 0.049701963 -0.08866423 -0.015280866
0003c0 cf 7b 74 3e 93 ea 38 3c 61 28 08 3c 25 0a 1c bd
       0.23875354 0.011286396 0.008310408 -0.038095612
0003d0 89 55 2e bd 04 d1 be bc f0 9e ce bc 95 ef b5 3d
       -0.04256204 -0.023293026 -0.025222272 0.08883587
0003e0 95 d1 fb bc 7f 9c 2c 3e fb 68 01 bd c8 bd 85 bc
       -0.030739585 0.16856574 -0.031594258 -0.016325846
0003f0 f7 c3 1e 3d ab 8f 08 bd 74 bd 0f 3a 68 9d ad bd
       0.038761105 -0.033340137 0.0005483248 -0.084772885

lstm.bias_hh_l0 f4 [512]
000000 31 de 83 3e 90 5e b6 3d 38 a7 1c 3e 25 8d 77 bd
       0.25755456 0.08904755 0.15298164 -0.06043734
000010 5f 48 d7 bd bf 56 5f 3d 9c e1 13 3c 7a ef f1 3d
       -0.105118506 0.054526087 0.009025957 0.11813255
000020 04 4d 6f bd d8 0f eb 3d e3 87 cb 3d 67 8b c0 3d
       -0.058423057 0.11477631 0.09938028 0.09401589
000030 99 9d 3d 3d 76 0e 69 bd 59 2a 17 3c ab 62 b5 bc
       0.046292875 -0.056898557 0.009226405 -0.022141775
000040 81 5f 36 bd 96 4d aa 3d 26 62 b3 bc 23 f7 a7 3b
       -0.044524673 0.083155796 -0.021897387 0.0051258965
000050 9e dd a9 3d ea 71 4a 3d 2a fa b9 3d 74 5e a3 bd
       0.08294223 0.049425043 0.09080918 -0.07977
000060 5b cf 3d 3e 36 c7 5c bd 58 c3 8d 3d 0a 9a 27 bd
       0.18536131 -0.05390092 0.069220245 -0.040918387
000070 01 88 0e 3d 74 4c 47 bb 58 c0 96 3c c9 43 a2 bd
       0.034797672 -0.003041056 0.018402264 -0.07923085
000080 da a6 9d bd a2 a2 fa 3c f3 91 46 bd bb bf 73 3d
       -0.0769784 0.030595127 -0.04847903 0.05950902
000090 d2 e3 d8 3c d4 f9 1d bd 09 49 8e 3c 1d 2f 88 3d
       0.02647582 -0.038568333 0.01736881 0.06649611
0000a0 a0 fa 8b 3d 30 ad 02 bd 4a 1f 08 bd 3f ac 5f 3d
       0.06834912 -0.031903446 -0.033232965 0.054607626
0000b0 db 6e a0 3d 0f ce ea 3d 0b 4a 62 3d 94 68 11 bd
       0.07833644 0.11465084 0.055246394 -0.035500124
0000c0 22 e4 4e 3d f6 1f 7a bd 1d c6 b3 3b f7 cc 92 bc
       0.050510533 -0.061065637 0.0054862634 -0.01792
0000d0 42 ed 2b 3d d5 d5 18 3e 88 03 ce bc f7 8a a2 bc
       0.041974314 0.1492532 -0.025148168 -0.019841654
0000e0 7d f1 a4 3c 00 bc ee 3d 1d 29 09 bd 2b a7 bb 3d
       0.020134682 0.11656952 -0.033486474 0.09162744
0000f0 cc fc a0 3b 5a 3e 72 3d 83 09 bd 3d a4 66 55 3a
       0.0049129482 0.059141494 0.0923033 0.00081406
000100 1b 6b a2 bc 85 ea 78 bd 4b 40 c9 3d 6a cf 29 bd
       -0.019826462 -0.06077053 0.09826716 -0.04145757
000110 b7 a2 89 3d 9f 5e 2b bd 04 3b 4f bd 82 d1 50 3d
       0.067204885 -0.041838285 -0.05059339 0.050981052
000120 f9 52 4d bd 33 dd 05 3d 42 d5 a6 3d 30 41 02 bd
       -0.050127957 0.032681655 0.081461444 -0.03180045
000130 26 60 fb ba e1 5f 59 bd e9 34 0d bd ef 5b 4d bd
       -0.0019178435 -0.053069953 -0.034474287 -0.050136503
000140 c8 42 88 bd 0d 40 aa 3c c2 d0 01 bd 00 43 89 3d
       -0.066533625 0.020782495 -0.031693228 0.06702232
000150 8a 43 8c 3c 9c 10 19 bd c1 dc 8b bc e9 b9 74 3c
       0.017122049 -0.037369356 -0.017073037 0.014936903
000160 c2 5f 15 bd 13 f3 ca bc 49 f5 cd 3d 8a 7c 93 bc
       -0.036468275 -0.02477411 0.1005655 -0.01800372
000170 f4 01 bf 3d 08 5b a2 bc a4 78 28 3d 49 53 53 3d
       0.093265444 -0.019818798 0.041130677 0.0515931
000180 20 8c e5 3b 62 04 8d 3c c9 fc 82 3d ee 44 66 3d
       0.0070052296 0.017214004 0.06395871 0.05621808
000190 53 8f 55 3d 7c 81 fa 3c c4 37 2b bc b1 5b 8d 3c
       0.052138638 0.030579321 -0.010450307 0.017255636
0001a0 21 41 f9 3c c7 b9 50 3c 89 8e cd 3d 08 a8 af 3d
       0.030426564 0.012739605 0.10036952 0.08576971
0001b0 09 cd d8 3d 10 39 9e 3c bb 10 d1 bc ea c8 2e bd
       0.10585982 0.019314319 -0.025520673 -0.042672075
0001c0 ca e6 19 3d 90 49 58 3d 61 cd d7 3d 07 d0 11 3d
       0.037573613 0.05280453 0.1053722 0.03559878
0001d0 fa 4d 50 bd 58 d7 5d 3d 0b 23 7c 3c 53 aa ae 3d
       -0.050855614 0.054160446 0.015389214 0.085285805
0001e0 cc 61 15 bd ec 73 f3 3d 18 a5 da 3d e6 21 d3 3d
       -0.03647022 0.11887345 0.106760204 0.103092
0001f0 23 30 88 3d ba 14 55 3d 9e 6a 32 3b 16 f3 60 bd
       0.06649806 0.05202172 0.0027224193 -0.054919325
000200 63 19 48 3d 32 68 f2 bc 86 90 85 3d aa c0 99 bc
       0.048852336 -0.0295907 0.06521706 -0.018768627
000210 12 8c a8 3d 7e 72 3d 3d 55 12 12 3e cb 8c 98 bc
       0.08229841 0.046251766 0.14264806 -0.018621823
000220 93 e8 94 3c ee 56 0d bc 14 f1 0c 3d a6 fd b8 3d
       0.018177306 -0.008626683 0.034409598 0.090327546
000230 c8 72 e2 bc 41 ed 49 3d 24 fb bd 3d c1 dd 2f bc
       -0.027642623 0.04929853 0.09276417 -0.010734023
000240 b7 fe 15 3d c3 76 b3 3d b0 e6 b5 bc 3f 3f af 3d
       0.036619868 0.087628864 -0.022204727 0.08556985
000250 a9 82 40 3d 05 3d 86 3d 37 4a c9 3d c0 81 ca 3d
       0.046999607 0.06554607 0.098286085 0.09888029
000260 3e a1 f2 3d b2 9f 03 3c 9e a7 a0 3c ca 82 27 bd
       0.11847161 0.00803368 0.019611176 -0.040896215
000270 43 45 9e 3b a1 c9 00 3e 0c 89 89 3d 9f ad 17 3d
       0.004830034 0.12576915 0.06715593 0.037030812
000280 e9 b0 0c 3d 81 7c b1 bb 0f 9a cd bc da f7 60 bd
       0.034348402 -0.0054164534 -0.025097875 -0.05492387
000290 41 ed 70 bb 20 aa 0b 3c 37 6d 77 bd 17 de 21 3d
       -0.0036762508 0.008524448 -0.06040689 0.039518442
0002a0 c8 71 3e bc f9 cf 0d 3d 0e 26 e4 3a 0d 39 8a bd
       -0.011623807 0.034622166 0.0017406361 -0.06749163
0002b0 18 d6 84 3d 90 39 e0 3c 4f 31 42 bd 2a 87 2d 3d
       0.06486148 0.027371198 -0.047410306 0.04236523
0002c0 c5 63 9d bd d2 ab 1a 3c 98 da e8 bc dc 4b 99 3d
       -0.07685045 0.009440379 -0.028424546 0.07485172
0002d0 7e 96 e4 3d 8c 4a cc 3a 23 86 b3 3d 4d 90 b5 3d
       0.111615166 0.0015586182 0.08765819 0.08865414
0002e0 27 3b 75 bd 86 28 b3 3b a6 ce 09 3d c3 73 8c 3d
       -0.059870865 0.0054674773 0.03364434 0.06858017
0002f0 77 5f 17 bd 5b 31 a4 bb 56 b3 45 bd 4c 57 49 3d
       -0.036956277 -0.0050107664 -0.04826673 0.04915552
000300 1f 3e 8f 3d e2 be 06 be 78 03 26 3d 08 5a c3 3c
       0.069942705 -0.13158754 0.04053065 0.023846641
000310 96 71 9f 3d ae 9d 52 3d e7 0e 84 bb 28 6f 08 3d
       0.07785337 0.051419906 -0.004030097 0.03330913
000320 d6 9c 19 bc b0 1c 2e bd fa 0a 66 3d 91 36 08 bd
       -0.0093757715 -0.042507827 0.05616281 -0.033255164
000330 fb fb 5b ba 3d 3b 5d bd 2a 11 02 3e 9b 9b 99 bc
       -0.0008391735 -0.054011572 0.1270186 -0.018750956
000340 e3 2e 8e 3d 4f aa 47 bd a0 70 b8 3d 0c 02 e0 3c
       0.06942537 -0.048746403 0.090058565 0.027344726
000350 c5 2d 60 3c 67 59 9d 3c 23 c0 e7 3d a1 98 c9 3c
       0.013682787 0.01920767 0.11315944 0.024608912
000360 53 62 22 3d 2f 3e d6 3c 79 38 f0 3d 46 0c e1 bc
       0.03964455 0.026152698 0.11729521 -0.027471673
000370 57 68 93 bc 39 08 ac 3d 48 4b a8 3d d1 3d 8d bc
       -0.017994089 0.08400006 0.08217484 -0.01724139
000380 72 d9 76 3e db df a1 3d dc 93 b2 3c 4d 9c cb 3d
       0.24106386 0.07904025 0.02179902 0.099419214
000390 02 ae 9d 3d 4f 46 08 3e e2 1c 9b bb f9 68 25 bd
       0.07699205 0.1330807 -0.0047336677 -0.040383313
0003a0 68 aa 5e bc 5f 78 30 3d 15 9b 03 3d 29 e4 ad bb
       -0.013590433 0.043083545 0.03213032 -0.00530674
0003b0 9e 5f fc 3c 68 b3 fa bc ea 51 7b 3d 38 d5 92 3b
       0.030807313 -0.030603126 0.061357416 0.004480984
0003c0 dc 89 80 3e 60 6c 92 3d 90 7c 23 3d 51 25 61 3c
       0.25105178 0.07149577 0.039913714 0.013741807
0003d0 b8 dd d5 bc 25 e4 8a 3d bb 5e 96 3d 86 40 71 3d
       -0.0261067 0.06781796 0.07342287 0.058899425
0003e0 03 02 c9 bc ac 9d 45 3e 7c 7b 76 3d 1a 68 93 3d
       -0.024537092 0.19298428 0.060176358 0.0719759
0003f0 85 60 1f bc 81 40 14 3d 4d af 16 bc bc 27 3d 3c
       -0.009727602 0.03619433 -0.009197068 0.011545118

lstm.weight_ih_l1 f4 [512, 128]
000000 8f f2 4a 3e 17 a7 56 bd 57 a5 17 be 46 e3 e7 3b
       0.19819091 -0.052405443 -0.14809166 0.0070766537
000010 db 9f 3a be a5 41 33 bd 2d dc 61 3e a6 46 4f 3d
       -0.18225043 -0.043763775 0.22056647 0.050604485
000020 f7 fe f7 3d ab b1 3a bc ee fb c8 3d c2 19 50 3c
       0.121091776 -0.011394898 0.09813677 0.012701454
000030 5d 0b 9d 3d 0a 55 b0 3d 73 97 55 3d cc 2f c8 bc
       0.07668183 0.0860997 0.052146386 -0.024436854
000040 96 19 eb 3d e5 21 8b 3d dd 7c 08 3d 8a e5 b6 bd
       0.114794895 0.06793574 0.033322204 -0.089305
000050 67 22 7e bc 3f 19 a8 bd fc 25 1d 3d b3 b2 77 3c
       -0.015511132 -0.0820794 0.038366303 0.015118289
000060 a0 dd c3 bd cf b5 a0 bd bd 00 c9 bc f5 80 ad 3d
       -0.09563756 -0.07847177 -0.024536485 0.08471862
000070 d2 6b 8d bc 16 bb 7b bd c5 3f f0 bc 85 cb d2 3d
       -0.017263327 -0.061457716 -0.029327283 0.102927245
000080 c5 39 ab 3d f4 8b 6a 3e ec 93 b6 3d fa a6 11 3d
       0.08360628 0.2290495 0.089149326 0.035559632
000090 ee 14 08 3d 67 e5 12 3d 2e 6b 8b bd 77 3b 53 3d
       0.033223085 0.035863306 -0.06807552 0.051570382
0000a0 eb e1 40 3c 2b 8d d2 bc a4 a9 c9 bd ba a0 61 3d
       0.011772613 -0.02570208 -0.098468095 0.05508492
0000b0 77 41 09 be b7 10 68 3c b4 e0 49 bd 70 5a 02 3d
       -0.13403879 0.014164141 -0.04928656 0.03182453
0000c0 9f d4 9c 3d 06 1e f7 bd 08 06 81 3d 01 1f af 3d
       0.07657742 -0.120662734 0.062999785 0.085508354
0000d0 b0 f6 e9 3d f9 70 a7 bd f8 bc 0e 3e ec 44 43 bd
       0.11424005 -0.08175845 0.13939273 -0.04767315
0000e0 ab 74 c7 bc 42 6c 27 ba ff 99 98 bd 37 91 19 3c
       -0.024347624 -0.0006386676 -0.074512474 0.009373001
0000f0 dd e4 95 3b f8 f3 37 3d 90 78 29 bd 4d 87 bf 3d
       0.004574402 0.0449104 -0.041374743 0.093519785
000100 73 32 8c 3d 91 91 06 be 1e 00 20 3e 9e e0 80 bd
       0.0684556 -0.13141467 0.15625045 -0.06292842
000110 89 1f 04 bd 30 a3 1f 3d ca ca a2 bd 06 46 c3 3d
       -0.032256637 0.038973987 -0.07948835 0.0953484
000120 aa 8f bf 3d 49 cf 3e be ac 9d ac bd 37 d6 bf bd
       0.093535736 -0.1863376 -0.08428511 -0.0936703
000130 e6 18 1b bd c7 69 4c 3d 2e 11 63 bd 11 ee b8 3d
       -0.037865542 0.049905565 -0.055436306 0.090297826
000140 60 9e aa bc 6f d4 83 3d a0 48 2d 3e 92 2c b7 3d
       -0.020827472 0.06437003 0.16922235 0.08944048
000150 0b 88 e5 bd 87 27 62 bd 04 f0 d5 bc 85 c7 78 3d
       -0.11207589 -0.055213477 -0.026115425 0.06073715
000160 6a 5e 3e bc ba de fd 3d e5 e4 13 3e 83 60 13 bd
       -0.01161919 0.12395997 0.14442785 -0.035980713
000170 20 c7 f4 ba 2b 4c 31 be 74 4b 9a bc 33 e4 d9 3c
       -0.0018675067 -0.17314212 -0.018834807 0.026598072
000180 42 09 42 3c 76 e4 75 bd a6 70 bb bc 3d 42 88 3b
       0.011843028 -0.06003233 -0.022880863 0.004158287
000190 0b f6 2d 3d f5 b0 05 3c 83 f3 1c 3e d4 14 de 3d
       0.042470973 0.008159866 0.15327267 0.108438164
0001a0 bc c6 09 bd f0 7c 39 be 7c af 6d bd 94 cd 6e bb
       -0.033636793 -0.18114066 -0.058028683 -0.0036438452
0001b0 69 93 80 bd cc c9 c6 3d fb 99 bf 3d c7 a8 18 3d
       -0.06278116 0.097064584 0.09355541 0.037270334
0001c0 33 23 8c bd 39 13 8b 3d 89 ef e5 3c 28 89 f6 3d
       -0.06842651 0.06790776 0.02806832 0.12037879
0001d0 c6 28 14 bd 12 32 42 3d b2 4c 8d bc 80 2d d0 bc
       -0.036171697 0.047411032 -0.017248485 -0.025412321
0001e0 ed c4 91 bd cb e4 b3 bd 1c bc 80 bd 32 03 40 bd
       -0.07117639 -0.08783873 -0.06285879 -0.046878047
0001f0 67 7d d0 3d 3c 3c 9d bd 5a 76 fb 3d 5f 81 af 3d
       0.101801686 -0.076775044 0.12278433 0.085695975
000200 e5 c9 96 bb 2f 4b 4e bd 9b 78 19 3d bf 7d 64 3c
       -0.0046017044 -0.05036467 0.037468534 0.013945996
000210 e2 ec 97 3c 21 dd 2b be 0f 3b a6 3d f4 56 3c 3e
       0.018545572 -0.16783573 0.08116733 0.18392545
000220 1c 9b 1e 3e 1f 40 b1 bd 76 fb 4c 3d 00 44 0f be
       0.15488857 -0.08654808 0.0500445 -0.13990784
000230 5f a6 ea 3d df dd a1 bd d1 91 61 3d b1 4f d0 3d
       0.11457514 -0.07903647 0.055070702 0.1017145
000240 27 e8 92 3c 72 71 56 3d 37 78 2f 3c 04 d2 bf bd
       0.017932964 0.052354284 0.010709814 -0.09366229
000250 94 60 80 bd 0c b1 f7 bd a9 f5 23 3e ff 2a 8c bc
       -0.06268421 -0.12094316 0.1601168 -0.017110346
000260 2a 1e 1a 3d a1 60 51 be b8 cc 63 be 70 e8 8b 3c
       0.037626423 -0.20447017 -0.22246063 0.017078608
000270 34 bd 3a 3e f4 36 6a 3d e1 18 03 3e 04 6a e3 bd
       0.18236238 0.057181314 0.1280246 -0.11104205
000280 50 4b bc 3d 07 b9 d1 bd 38 9d b9 bc 3f bf fd bc
       0.09194052 -0.10240369 -0.022657976 -0.030974982
000290 f2 20 b7 bd 70 33 83 bd a2 01 c5 3d bc 03 f0 3c
       -0.08941831 -0.06406295 0.09619452 0.029298656
0002a0 f3 21 8a bd 27 68 58 bd 59 d3 cf 3b 35 57 0c bd
       -0.067447565 -0.052833702 0.0063423333 -0.034262855
0002b0 bf eb 69 3d f7 fe 70 3d a2 85 a4 bc c8 f4 25 3d
       0.05710959 0.058836903 -0.020083252 0.040516645
0002c0 f0 c3 30 3d 73 87 cd bd 5f 9b 94 bc 44 44 d7 3d
       0.04315561 -0.100356005 -0.018140493 0.105110675
0002d0 71 3f 8c 3d e1 b6 13 3c f3 ee 82 bd fc 89 07 3e
       0.06848038 0.00901577 -0.06393232 0.1323623
0002e0 82 7a 17 bd 61 bb cf 3d 7a f7 9a 3c 9b 2e b7 3d
       -0.036982067 0.101431616 0.018916834 0.08944436
0002f0 99 bc be bd 6b 5e 76 bd f1 90 48 bd f5 07 e9 bc
       -0.09313316 -0.060148638 -0.048966352 -0.028446177
000300 46 19 8e 3d e1 4f b8 ba a6 94 67 3d 77 7c fe bd
       0.06938414 -0.0014061892 0.056538247 -0.124260835
000310 cb 28 98 bd 6d 2a 46 3d 87 75 27 bc b9 16 8f bd
       -0.07429656 0.048380304 -0.010220892 -0.06986756
000320 64 42 e2 3c a1 19 58 3d 9c 7d 02 3d ed 70 0b be
       0.027619548 0.052758817 0.03185807 -0.13617297
000330 99 cf 5f 3d de 57 3e bd 73 97 e4 3d fa 45 ad 39
       0.05464134 -0.046470515 0.11161699 0.00033049268
000340 dc 72 4c bd 83 e4 9e 3d 20 eb a3 3d 0c e6 d3 3d
       -0.049914226 0.07758429 0.08003831 0.10346612
000350 14 3b 1f be 65 b5 57 3b 07 16 af 3d 6f 78 eb 3d
       -0.1554988 0.0032914516 0.08549123 0.1149758
000360 7e bd 5e bc f0 20 d2 3d b5 dc a3 3d a4 04 ed bb
       -0.013594983 0.102601886 0.08001081 -0.007233219
000370 bb 4d 40 bd db 31 11 be c6 76 c0 bd ca ed 1b 3e
       -0.04694913 -0.14179175 -0.09397654 0.15227428
000380 c0 91 f6 bd 5c a0 d7 bc f7 02 11 3e d1 0e a4 bd
       -0.12039518 -0.026321582 0.14161287 -0.080106385
000390 71 d0 cc 3d 51 1b d2 3b cc 13 b2 3c e9 3b 16 3d
       0.100006945 0.006411948 0.021737956 0.03667823
0003a0 67 01 0a be ff ab 82 bd 79 b6 12 be e3 4d b5 bd
       -0.13477097 -0.06380462 -0.1432742 -0.08852746
0003b0 08 ce ab bd 8e 78 50 bd 74 c4 cb 3d e2 6c f5 3d
       -0.08388907 -0.05089622 0.0994958 0.119836584
0003c0 9b 4f 15 be 63 a8 05 3e cb 4a 7a 3d 09 e3 0e 3d
       -0.14581148 0.13052516 0.061106484 0.034884486
0003d0 2e 73 42 3d 45 eb 29 be f1 c5 df 3d 62 3d ca 3c
       0.047473125 -0.16593654 0.10926426 0.024687473
0003e0 ef ab 37 be 3b be 67 bd 55 c9 e3 bd 28 45 00 bc
       -0.17936681 -0.056577902 -0.111223854 -0.007828988
0003f0 c5 79 2f 3e 28 96 13 bc c0 ad 97 3d 1c c7 9c bd
       0.17136295 -0.009007968 0.07406187 -0.076551646

lstm.weight_hh_l1 f4 [512, 128]
000000 0c fe 96 3c 5c 2d 1f be 8e 2e 2f bd ca 60 f3 bc
       0.018431686 -0.15544647 -0.042769007 -0.029709239
000010 9a 90 3e bd 48 47 3a bd 82 3b e4 bc a2 97 58 3d
       -0.04652462 -0.045478135 -0.027860407 0.052878983
000020 35 2a 10 be 99 c6 d7 3d 91 45 b3 bd 8a 22 0d be
       -0.140786 0.10535926 -0.08753503 -0.13782707
000030 32 12 e6 3d 88 33 ab 3b 0a 54 55 bb e4 3c ff 3c
       0.11233939 0.005224649 -0.0032551312 0.031156965
000040 19 12 96 3d 79 d2 bd bd c2 8a 37 bd 60 d1 f3 bc
       0.073276706 -0.0926866 -0.044810064 -0.029762924
000050 19 90 f3 3d 30 4a 95 3d 8b 4f 2c be 8a db 35 bd
       0.11892719 0.07289541 -0.16827218 -0.044398822
000060 91 76 2c 3d 59 33 32 3d fa 82 97 3c c8 c8 b6 bd
       0.04210526 0.043506 0.018495072 -0.08925015
000070 9b 7a 58 bd c7 7d 3b bd d9 3f 48 bd 4b 57 3c bd
       -0.0528513 -0.045774247 -0.048889015 -0.045981687
000080 3e 84 07 3d 68 db 44 3d 3a f6 c9 3d 4d 9e 50 bc
       0.0330851 0.048060805 0.09861417 -0.012733054
000090 88 0c 5f bb f6 89 f3 bc 7e d5 86 3c 57 c4 b8 bd
       -0.0034034569 -0.02972887 0.016459223 -0.09021824
0000a0 3b 8e 18 bd 6e 00 91 bd 3d 80 45 3e fd 07 4c bd
       -0.037245017 -0.0708016 0.192872 -0.049812306
0000b0 48 b9 77 3a 44 d6 16 be eb f8 7e bd f1 75 c5 bc
       0.00094499113 -0.14730173 -0.062249105 -0.02410409
0000c0 ab f9 0a 3e 40 35 2f 3d fb 7d 1f bc 68 73 c0 bd
       0.13571803 0.042775393 -0.009734626 -0.09397012
0000d0 ba 60 2a 3e 73 0e 65 bd 4c d2 42 3d 55 7e 85 bd
       0.16638461 -0.055921983 0.047563836 -0.065182365
0000e0 16 03 8f bd 5e 3c 14 be 88 fd be bd fa 79 2a 3e
       -0.069830105 -0.14476153 -0.09325701 0.16648093
0000f0 96 a0 ca bc 1e ea ce bc 5c be 1d be 24 80 15 3d
       -0.024734776 -0.02525812 -0.15404648 0.036499158
000100 6e f2 bd 3b 58 b8 94 3d 80 26 3f 3d f0 7e 0f be
       0.005796722 0.07261723 0.046667576 -0.14013267
000110 da bd 7d bd 5a f3 09 bd cb a5 27 3d b7 47 27 3e
       -0.061948635 -0.033679344 0.040929597 0.16335951
000120 8b 18 d6 bd 32 10 2b 3a de d2 c8 3d 0c 6d d6 3c
       -0.104539 0.00065255456 0.09805845 0.026175044
000130 75 29 ca 3c 7d 64 c0 bc 92 21 5f bc 36 ba 97 3a
       0.024677971 -0.023485417 -0.013618844 0.0011575881
000140 2f a4 53 bd 9b cb 3a 3e cd 3a 9e bd 49 76 10 be
       -0.05167025 0.18241732 -0.07726059 -0.14107622
000150 be c8 3f bd 24 59 88 3d a8 1b 96 bd dc 27 94 3c
       -0.046822302 0.06657627 -0.07329494 0.018085413
000160 82 6d 4c 3d dc d7 bc ba 2d 2b 69 bc 64 14 26 be
       0.049909122 -0.0014407593 -0.014231485 -0.16218716
000170 d4 1a 54 bd 84 14 19 3d 09 36 cc bc 2e 40 4d 3d
       -0.051783398 0.03737308 -0.02492811 0.050110035
000180 8c 04 0b bd 0b 92 2a be 0c 8b cd bd 39 d5 38 bc
       -0.033939883 -0.16657273 -0.10036287 -0.011281305
000190 1a 36 32 3e ed 65 f9 bc 99 d3 a2 bd 9c d3 01 3e
       0.1740345 -0.03044411 -0.07950515 0.12678379
0001a0 40 1a be 3d df c7 2f be 36 94 2a 3d 23 82 29 bc
       0.092823505 -0.17166089 0.04164525 -0.010345968
0001b0 ed 0c c0 3c a8 16 31 bc 38 41 00 bd 4d 04 ca bd
       0.023443663 -0.010808624 -0.031312197 -0.098641016
0001c0 24 63 c6 3d 46 2e f2 3d f0 7b fc 3d a6 8a b9 bc
       0.09686878 0.11825232 0.12328327 -0.02264912
0001d0 9d b8 0b 3e b7 ae aa bd 19 8b 84 3d 4f f3 be 3d
       0.13644643 -0.083341055 0.06471843 0.09323751
0001e0 25 b4 89 bd be 22 80 bc 4c 9f 0b 3e 23 41 cf bc
       -0.06723813 -0.015641566 0.13634986 -0.025299614
0001f0 ae 63 b0 bd f4 56 8d 3b 0d a6 25 bd cc 06 3e be
       -0.086127624 0.004313344 -0.04044156 -0.1855728
000200 c6 5f f4 3d 50 40 49 bd a0 fc 35 bc bb 0e 41 bc
       0.1193233 -0.0491336 -0.011107594 -0.011783297
000210 91 31 8c 3c 3d ef 88 bd c8 87 0f 3e 69 21 cc 3b
       0.017113479 -0.06686256 0.1401664 0.0062295687
000220 63 ed 04 bd 93 25 93 3c 5c dc eb bd b7 e7 0d 3d
       -0.032452952 0.017962253 -0.115166396 0.03464481
000230 4f a6 15 3e 82 c9 c5 3d 01 6c d7 bb b3 30 1b 3c
       0.14614223 0.09657575 -0.0065741544 0.00947206
000240 88 26 8c bc 22 fb b9 3c eb 50 42 3c 21 3e 27 be
       -0.017108217 0.022702757 0.011860113 -0.16332294
000250 cd 3c c5 3d 6c b4 3c 3e 67 1f ac bc 6e 04 c5 bd
       0.096307375 0.184282 -0.021011068 -0.096199855
000260 6d f4 02 bd 50 9c 9b bc 9b 6e 97 3d 14 66 9f bd
       -0.031971384 -0.018995434 0.07394143 -0.07783142
000270 30 bc ea bd 82 37 2b 3c 6e d1 b2 3c 32 c4 2b be
       -0.11461675 0.010450246 0.02182838 -0.16774061
000280 75 74 31 bd 24 bc 48 bc 21 e6 f9 3d 49 74 a8 3d
       -0.043323953 -0.0122518875 0.12202097 0.08225305
000290 e2 6b e8 bd 42 69 d5 bd 65 a2 d9 bd 52 d2 10 bb
       -0.11348702 -0.10420467 -0.106266774 -0.0022098017
0002a0 4b f2 a7 bd 51 06 f5 bd f7 3b e1 3d c7 25 1f 3d
       -0.082005106 -0.119640954 0.109977655 0.038854387
0002b0 07 78 84 3d 7a 75 21 be 72 35 91 3c ce 2c a9 bd
       0.06468206 -0.1576747 0.01772568 -0.08260499
0002c0 7c 09 24 3e d5 44 9a 3d 70 fd b0 3d a7 9f 59 bd
       0.16019243 0.0753266 0.08642089 -0.053130772
0002d0 90 49 04 3e 1d 29 2a 3c 85 32 e9 3b 65 05 7d bd
       0.12918687 0.010385779 0.007116618 -0.061772723
0002e0 29 65 c8 bc 24 a5 b1 3c 6e d1 a8 bd a0 3f bd 3c
       -0.0244623 0.02168519 -0.082430705 0.023101628
0002f0 1a 47 b4 bc 7f 77 e1 bc 85 7f 1b be 78 55 74 3c
       -0.02200656 -0.0275228 -0.15185364 0.014912955
000300 8b e9 53 3c aa 30 a3 3d 17 09 69 3d f2 82 41 bb
       0.012934099 0.07968266 0.056893434 -0.0029527512
000310 d6 a1 16 3e ae 9a 97 bc 80 3a 4d 3d 24 32 33 3d
       0.14710173 -0.018506374 0.050104618 0.04374899
000320 9e 30 0f be 6d 88 2a 3c 10 c4 80 3d c2 90 04 be
       -0.1398339 0.010408503 0.06287396 -0.12945846
000330 ff d7 5d 3c 9e db f1 3d bd 24 77 bd e9 6e bc 36
       0.013540267 0.11809467 -0.06033777 5.6157483e-06
000340 4f 5d 68 3d 24 f3 8b 3d c1 35 1d be 37 a2 0f be
       0.05672961 0.06833485 -0.15352537 -0.14026724
000350 dc 87 ce 3d 27 21 18 3e 9c 4b ba bd fc 5a b4 bd
       0.10084507 0.14856397 -0.090964526 -0.088064164
000360 c5 a3 18 3e f5 54 af bd dd fa 9f 3d bc ff 50 bd
       0.14906223 -0.08561126 0.0781152 -0.051025137
000370 e2 7c 1c be cf 8d 27 bc a6 6f 0d bd fc 62 16 3e
       -0.15282014 -0.010226681 -0.034530304 0.14686197
000380 a8 0a 9b bc 58 c1 c7 bd d7 29 1d 3c 95 2f fd 3d
       -0.01892598 -0.09753674 0.009592495 0.12362591
000390 dc f9 ad 3d cf 29 a3 3d 73 51 f1 bc bb fc 2a 3e
       0.084949225 0.07966959 -0.029457783 0.16697972
0003a0 20 69 85 3d 43 d4 38 be fc f9 ad 3d 64 fe 68 bc
       0.06514192 -0.18049721 0.08494946 -0.014220808
0003b0 ef a3 95 bd d0 ad 63 3d a7 38 3a bd 9d eb 6a bd
       -0.073066585 0.055585682 -0.045464184 -0.057353605
0003c0 56 16 8c 3d d6 47 09 3d aa dd c0 3d 50 e0 96 3c
       0.06840198 0.033515774 0.09417279 0.018417507
0003d0 86 37 dd 3d 1d 47 0b 3d 26 5c c7 3d 37 f0 0c 3e
       0.10801606 0.034003366 0.09734373 0.1376351
0003e0 2d 17 06 3e 4f 19 0e be 29 1a 83 3c 3a cc fc bc
       0.13094778 -0.13876842 0.016003685 -0.030859102
0003f0 c3 66 58 bd d4 f3 87 bc 1a 73 cd bd dd 31 32 be
       -0.052832376 -0.016595758 -0.100317195 -0.17401834

lstm.bias_ih_l1 f4 [512]
000000 0c 76 db 3d ef 2f 2f 3e 93 68 12 bd d8 1a 93 bc
       0.10715875 0.17108129 -0.03574426 -0.017957136
000010 48 44 60 3d d5 45 14 3c 61 5f 6a 3c cb 41 b2 bc
       0.054752618 0.009049852 0.014304967 -0.021759888
000020 2d 8a 3d 3d 97 93 04 bd 08 e8 1a bd 36 af 13 bd
       0.046274353 -0.032367315 -0.03781894 -0.036055766
000030 4c 1a db 3d b0 00 ae 3d b8 48 e6 bc e2 f6 b9 3d
       0.10698375 0.08496225 -0.028110847 0.09080292
000040 34 cf 4e bc 5d df 39 3d b9 d4 7c 3d d4 f0 19 bc
       -0.012622643 0.04537903 0.061726306 -0.009395797
000050 fe 76 ad 3c 4f 50 ce bc 07 25 68 3d 25 5f 80 3d
       0.021174904 -0.025184778 0.056675937 0.062681474
000060 32 49 13 3d d5 2d bd 3c 4a f0 5f 3d cc 8c 2e 3e
       0.035958476 0.023093143 0.054672517 0.17045897
000070 2f c1 8a bd 08 12 8d bd 59 2c aa 39 58 1c 89 3c
       -0.06775128 -0.06888205 0.00032457968 0.016737148
000080 9c c8 5f bd e8 04 c0 3d ee 5b a7 bc 7e f3 42 3c
       -0.054634675 0.09375936 -0.020429578 0.011898873
000090 2a f4 21 bd 15 97 a5 3d 76 b3 c5 3c e8 b7 b3 bd
       -0.039539494 0.08085457 0.024133425 -0.08775312
0000a0 e5 43 59 bd 9b ec be bd 73 a1 78 3c d9 1d 79 bd
       -0.053043265 -0.09322473 0.015175211 -0.06081948
0000b0 96 ee 75 3d bf a7 86 3d 76 13 34 bc 1b ce 5a 3c
       0.060041986 0.06574964 -0.010990968 0.013354803
0000c0 14 6f ca bc 7a 00 29 3d a8 37 8e bd 22 fd b8 3d
       -0.02471117 0.04126022 -0.06944209 0.09032656
0000d0 3d 35 b9 3c f0 5f 7a bd aa ad 6f 3d 47 8a a8 3d
       0.022608394 -0.06112665 0.05851523 0.08229499
0000e0 06 10 0a bd ee 10 6b 3d c6 fa c7 bd 88 1f 8e 3d
       -0.033706687 0.057389192 -0.09764628 0.06939608
0000f0 a9 38 60 3d d6 a2 81 bd bc e5 8e bc f3 aa 2a bb
       0.054741535 -0.063298866 -0.01744353 -0.0026041835
000100 71 9b aa bd 51 61 0c 3d a0 8a fd 3b 82 e2 9a 3d
       -0.08330429 0.034272496 0.0077374727 0.07562734
000110 a5 8c 47 bd 92 d2 a0 3b 7f 14 87 bd d3 e5 2d bd
       -0.048718113 0.0049079144 -0.06595706 -0.042455506
000120 81 23 19 3e c9 1c 28 bd f7 c2 5e bd 9f 2c 40 3d
       0.1495495 -0.041043077 -0.05438515 0.046917554
000130 5d 82 10 bd ad 29 1c bd 53 e7 ad 3c d1 f8 d2 3d
       -0.035280574 -0.038125683 0.021228468 0.10301364
000140 a9 27 85 3b f0 ea 12 3d c3 8b b7 3d 57 6e 2e 3d
       0.0040635657 0.035868585 0.08962204 0.042585697
000150 e8 f3 a4 bc 6e d1 77 bd a3 b0 19 3d b2 f2 bb bd
       -0.020135835 -0.060502462 0.03752197 -0.0917715
000160 6c 6c d4 bd 5f 5f 3d bc 6a 81 39 bd 06 83 80 bd
       -0.10372242 -0.011558383 -0.045289434 -0.06274991
000170 6f 81 84 3d 3e 5e ea bc c4 98 04 3d 38 1c 39 3d
       0.0647 -0.028609391 0.03237225 0.045192927
000180 a6 0b 9c bd 41 30 f2 ba ed ec b0 3d 9b 2b 0a bc
       -0.07619409 -0.0018477516 0.0863894 -0.008433248
000190 6d c9 bb 3d 32 3c dd 3d d8 49 2a 3c 79 c6 cc 3c
       0.09169278 0.10802497 0.010393582 0.024996983
0001a0 dc dd 54 3d a6 3f 04 3d 01 2f 23 3e 69 c1 c2 3d
       0.051969394 0.032287262 0.159359 0.09509546
0001b0 03 8d 25 bb 05 9b 4e 3d 1c 8a 41 3d 85 f0 6e 3c
       -0.0025261051 0.050440807 0.047250852 0.0145837115
0001c0 6f d8 d0 3c f8 00 b3 3d cd 95 da 3d 39 49 e3 bd
       0.025493829 0.08740419 0.106731035 -0.110979505
0001d0 bc 7e 52 bc 42 c9 c8 bd 75 52 4c bc 8d 52 11 3d
       -0.012847599 -0.09804012 -0.012470831 0.035479117
0001e0 d8 f7 16 3d de 16 97 bd c7 03 3c bc be aa 9e 3d
       0.036857456 -0.073774084 -0.01147551 0.0774741
0001f0 e6 76 09 3e 70 68 43 3c 74 bd 05 3e 52 44 21 3d
       0.13424262 0.011926755 0.13060552 0.039371796
000200 5e e6 0e 3e cd 22 d4 3c 7f 16 9e bd f3 c5 a3 bd
       0.13955066 0.0258955 -0.077191345 -0.0799674
000210 36 fe 9c 3c c1 50 cb 3c 90 d1 7e bc ba 2c a7 bd
       0.019164186 0.02481878 -0.015552893 -0.08162828
000220 4e 1d 4a bd 62 0a 47 bd 49 b5 e1 3c 3b 8b d2 bd
       -0.049344353 -0.048593886 0.027552264 -0.10280462
000230 a2 fd a1 bb c9 9b 0c 3d 82 49 58 bd 28 b1 8e 3c
       -0.0049435655 0.034328256 -0.052804478 0.017418459
000240 f8 c8 b4 3d 5b 48 d9 bd 6f 46 80 3d f4 7f ae bd
       0.08827394 -0.10609504 0.06263434 -0.08520499
000250 cf 27 1a 3c 65 3f 9d 3c 8d df a9 3c f8 02 27 bc
       0.009408905 0.019195268 0.02073648 -0.010193579
000260 62 55 43 bd cd 06 33 bd 3f f2 07 3b 10 4f 81 3d
       -0.04768885 -0.043707658 0.0020743755 0.06313908
000270 ab 79 12 bd 0e 45 87 bd 26 fa 0d 3e 39 52 90 3d
       -0.035760563 -0.06604968 0.13864955 0.07046933
000280 64 62 c0 3d e8 79 8d bd 4d be c0 3d 21 aa 63 bd
       0.093937665 -0.069080174 0.09411297 -0.05558217
000290 17 4b a4 bd 43 e0 ab bd 9f 02 a3 3c 81 44 1d bc
       -0.08022135 -0.08392384 0.01989871 -0.009598852
0002a0 5e eb 2e 3d 59 be b9 bd bf 66 37 3d 6a 0a cf 3d
       0.042704932 -0.09069509 0.04477572 0.10109408
0002b0 1f 5d 3f 3c 49 09 14 3e 45 6c 05 bd f9 10 f7 3d
       0.011679917 0.14456667 -0.032573957 0.12063784
0002c0 77 cf b8 bc 83 38 f4 bc f2 83 b2 3b 39 8d 09 3d
       -0.022559864 -0.029812103 0.005447858 0.033581946
0002d0 90 a4 36 bc 85 26 af 3c 56 68 0f bc 4c f6 60 bd
       -0.011147633 0.021380672 -0.008752903 -0.054922387
0002e0 7c 00 8f bc 0b 60 67 3d 48 37 48 3c 16 58 02 3d
       -0.017456286 0.056488078 0.012220211 0.031822287
0002f0 19 f9 b1 bc af 4a 71 3d a2 15 47 bd 25 51 84 3c
       -0.021725224 0.058909114 -0.048604615 0.016151974
000300 31 59 6c bd 88 8e 2b bc 2a e6 c9 3b 9b 07 a7 bc
       -0.057702247 -0.010470994 0.006161471 -0.020389369
000310 69 44 ab bc 04 78 8a 3d 78 6f 51 bc 3c 98 93 3d
       -0.020906644 0.067611724 -0.012782924 0.07206771
000320 77 fa b1 3d bf 50 60 bd ce 43 ca bc 68 56 71 3d
       0.086903505 -0.054764505 -0.024690535 0.058920294
000330 30 00 be bd 3f 70 0c 3d d0 86 bf 3c 44 b8 9e 3d
       -0.092773795 0.034286734 0.023379713 0.0774999
000340 ea 86 86 3c 32 b7 3e bd 06 e2 40 bc b6 c6 f4 bc
       0.016421754 -0.046561427 -0.011772638 -0.029879909
000350 9a 6b f5 bc a3 2b 1e bc 60 8f eb 3d e0 35 0b bd
       -0.029958535 -0.0096539585 0.11501956 -0.033986926
000360 1e f7 dd 3c 1a e6 09 bc 6f 5a ab bd e4 a5 80 3d
       0.027095374 -0.008416677 -0.08366858 0.06281641
000370 f3 13 2a bd ce c4 16 bd b3 71 de bb d5 6c 48 3d
       -0.04152293 -0.03680878 -0.0067884563 0.048931915
000380 62 c1 d6 3d 28 45 ed 3d 89 f7 a3 bd 22 38 4f 3b
       0.104861036 0.11585456 -0.08006198 0.003161915
000390 40 db 77 3b 62 b8 4e bd c9 d0 52 3d a8 e4 13 3d
       0.0037819892 -0.05046881 0.051468644 0.036106735
0003a0 cf cd 37 bd e1 a5 84 3d e3 16 1f 3e c2 b2 ac bc
       -0.04487401 0.064769514 0.15536074 -0.021081332
0003b0 4f 58 cf 3d 21 15 a6 bc d1 ad 3f bc bb cd aa 3d
       0.101242654 -0.020273747 -0.011699156 0.08340021
0003c0 50 20 5b bd 4f 27 9a 3c ab 9f 1c bd ac 9e 26 bd
       -0.053497612 0.018817572 -0.03823821 -0.040678665
0003d0 1c 5d b2 3d 94 7d 0a bb a9 88 2f ba 42 c4 c6 3d
       0.087091655 -0.002113198 -0.0006696084 0.09705402
0003e0 59 26 bd 3d ad dc 7a 3d ae 7f a0 bc 08 d9 95 3d
       0.0923583 0.06124561 -0.019592132 0.07316786
0003f0 fb 41 80 3d 24 32 7b bc 1a f5 2e bc fe ca bf 3d
       0.06262585 -0.015331779 -0.010678554 0.093648896
